…
│ (BatchNormalizatio… │ 128)              │            │                   │
├─────────────────────┼───────────────────┼────────────┼───────────────────┤
│ add_3 (Add)         │ (None, 16, 16,    │          0 │ batch_normalizat… │
│                     │ 128)              │            │ re_lu_7[0][0]     │
├─────────────────────┼───────────────────┼────────────┼───────────────────┤
│ re_lu_9 (ReLU)      │ (None, 16, 16,    │          0 │ add_3[0][0]       │
│                     │ 128)              │            │                   │
├─────────────────────┼───────────────────┼────────────┼───────────────────┤
│ max_pooling2d_1     │ (None, 8, 8, 128) │          0 │ re_lu_9[0][0]     │
│ (MaxPooling2D)      │                   │            │                   │
├─────────────────────┼───────────────────┼────────────┼───────────────────┤
│ conv2d_10 (Conv2D)  │ (None, 8, 8, 256) │    295,168 │ max_pooling2d_1[… │
├─────────────────────┼───────────────────┼────────────┼───────────────────┤
│ batch_normalizatio… │ (None, 8, 8, 256) │      1,024 │ conv2d_10[0][0]   │
│ (BatchNormalizatio… │                   │            │                   │
├─────────────────────┼───────────────────┼────────────┼───────────────────┤
│ re_lu_10 (ReLU)     │ (None, 8, 8, 256) │          0 │ batch_normalizat… │
├─────────────────────┼───────────────────┼────────────┼───────────────────┤
│ conv2d_11 (Conv2D)  │ (None, 8, 8, 256) │    590,080 │ re_lu_10[0][0]    │
├─────────────────────┼───────────────────┼────────────┼───────────────────┤
│ batch_normalizatio… │ (None, 8, 8, 256) │      1,024 │ conv2d_11[0][0]   │
│ (BatchNormalizatio… │                   │            │                   │
├─────────────────────┼───────────────────┼────────────┼───────────────────┤
│ re_lu_11 (ReLU)     │ (None, 8, 8, 256) │          0 │ batch_normalizat… │
├─────────────────────┼───────────────────┼────────────┼───────────────────┤
│ conv2d_12 (Conv2D)  │ (None, 8, 8, 256) │    590,080 │ re_lu_11[0][0]    │
├─────────────────────┼───────────────────┼────────────┼───────────────────┤
│ batch_normalizatio… │ (None, 8, 8, 256) │      1,024 │ conv2d_12[0][0]   │
│ (BatchNormalizatio… │                   │            │                   │
├─────────────────────┼───────────────────┼────────────┼───────────────────┤
│ add_4 (Add)         │ (None, 8, 8, 256) │          0 │ batch_normalizat… │
│                     │                   │            │ re_lu_10[0][0]    │
├─────────────────────┼───────────────────┼────────────┼───────────────────┤
│ re_lu_12 (ReLU)     │ (None, 8, 8, 256) │          0 │ add_4[0][0]       │
├─────────────────────┼───────────────────┼────────────┼───────────────────┤
│ global_average_poo… │ (None, 256)       │          0 │ re_lu_12[0][0]    │
│ (GlobalAveragePool… │                   │            │                   │
├─────────────────────┼───────────────────┼────────────┼───────────────────┤
│ dropout (Dropout)   │ (None, 256)       │          0 │ global_average_p… │
├─────────────────────┼───────────────────┼────────────┼───────────────────┤
│ dense (Dense)       │ (None, 10)        │      2,570 │ dropout[0][0]     │
└─────────────────────┴───────────────────┴────────────┴───────────────────┘
 Total params: 6,888,608 (26.28 MB)
 Trainable params: 2,295,050 (8.75 MB)
 Non-trainable params: 3,456 (13.50 KB)
 Optimizer params: 4,590,102 (17.51 MB)

